Using TensorFlow backend.
Training sample size:  19894 
Test sample size:  5106
Loading Images...
Images Loaded Successfully!
channels_last
Model: "sequential_1"
_________________________________________________________________
Layer (type)                 Output Shape              Param #
=================================================================
conv2d_1 (Conv2D)            (None, 38, 51, 32)        896
_________________________________________________________________
activation_1 (Activation)    (None, 38, 51, 32)        0
_________________________________________________________________
max_pooling2d_1 (MaxPooling2 (None, 19, 25, 32)        0
_________________________________________________________________
conv2d_2 (Conv2D)            (None, 17, 23, 32)        9248
_________________________________________________________________
activation_2 (Activation)    (None, 17, 23, 32)        0
_________________________________________________________________
max_pooling2d_2 (MaxPooling2 (None, 8, 11, 32)         0
_________________________________________________________________
conv2d_3 (Conv2D)            (None, 6, 9, 64)          18496
_________________________________________________________________
activation_3 (Activation)    (None, 6, 9, 64)          0
_________________________________________________________________
max_pooling2d_3 (MaxPooling2 (None, 3, 4, 64)          0
_________________________________________________________________
flatten_1 (Flatten)          (None, 768)               0
_________________________________________________________________
dense_1 (Dense)              (None, 64)                49216     
_________________________________________________________________
activation_4 (Activation)    (None, 64)                0
_________________________________________________________________
dropout_1 (Dropout)          (None, 64)                0
_________________________________________________________________
dense_2 (Dense)              (None, 1)                 65
_________________________________________________________________
activation_5 (Activation)    (None, 1)                 0
=================================================================
Total params: 77,921
Trainable params: 77,921
Non-trainable params: 0
_________________________________________________________________
Epoch 1/10
994/994 [==============================] - 63s 64ms/step - loss: 0.6563 - accuracy: 0.6065 - val_loss: 0.5548 - val_accuracy: 0.6905
Epoch 2/10
994/994 [==============================] - 62s 62ms/step - loss: 0.5990 - accuracy: 0.6871 - val_loss: 0.7422 - val_accuracy: 0.7070
…
